trained_model_stored/RNN_7split_model.pt (torch, 74255 bytes, 4 tensors)

weight f4 [128, 132]
00000000: 5f5a 143c 78b7 883d 7d19 993d 3593 0ebc
00000010: f371 8ebd 88e3 743d f52c 443c 9a21 36bd
00000020: 3e54 323d 3a7f 9a3d e179 9539 0d4a 9fbc
00000030: 5918 95bd 8739 95bd 7b11 b33d 53eb d23c
00000040: 3bbb 973d 1487 e6bb 1138 a0bd 173b 83b9
00000050: dc34 8a3d 089d f0bb cb12 e9bc 4811 e8bc
00000060: 9703 613c f0a6 813d 1096 84bd e6cb f6bc
00000070: 8d4c 3bbc 2c99 933d 7ae3 aabd d9c0 3fbd
00000080: 482f 45bd c0c4 7c3d ffb2 a83d c9f2 afbd
00000090: fec8 303d 9b63 94bd bea3 0e3d 618f 843c
000000a0: cb89 2dbd 9e93 cdbc b890 8bbd 8149 8f3d
000000b0: e11e 53bd c5ff ee3c 4637 a23d f52a 8abd
000000c0: 5520 3d3c 8a0f 96bd 2d4d c93c 30bb 443d
000000d0: a812 2b3c 2c4b 7d3c 416a 27bd 37c9 84bc
000000e0: 50b9 7abd 0ba3 4e3c 2c40 213d 8caf 21bc
000000f0: 5f62 dd3c 809b 9bbd 06c0 cc3c cd20 50bd
00000100: d411 b9bc 276a 3fbd f3b5 a2bd 942a 883b
00000110: e860 ab3c 6346 66bd 5d44 883d 67db b0bd
00000120: a04f d8bc fb0d 2cbc 3f01 7bbd d107 d2bb
00000130: 84fd 73bc f81e d0bc 81f0 993d 2f67 90bd
00000140: ddbd 9bbd 4957 3cbd c70c 323c 7544 60bc
00000150: 0633 23bd b5dc a93d e2c5 f3bc d52d 813d
00000160: 4684 923d 35fa f9bc bf94 82bd 68e6 dabc
00000170: dca5 b13d dee7 02bd 57fe a83c 2552 91bd
00000180: f4b8 13bd ea12 953d 068c 903d bedc 1b3c
00000190: 7817 90bd 104d 033d ac83 823d a97f 10bd
000001a0: e589 8bbc cb56 663d ae1a 3d3d 891b e93b
000001b0: 60a6 0f3d 7a86 9d3d f430 24bd 5deb 4b3d
000001c0: 8747 79bc cf8a 04bd b392 f33c 3cc8 3f3d
000001d0: 733f 983d d88a b0bd 57a8 b5bc 52f1 923c
000001e0: 5647 37b9 de2f 333d b53d a8bd 903f 58bc
000001f0: c90a 80bd 07ca d53b ad10 683c 0ba5 a33d
00000200: 3c65 1dbb 45c6 f3bc f0a1 1dbc b4c8 853d
00000210: 4e54 79bd 76c7 0bbd 94a9 acbb d74f 6fbd
00000220: c4c9 3b3d 17fd 20bc 8973 cc3c 216c 303c
00000230: 5ab8 a3bc 63af 703d 5cfc 133d 8dde 42bd
00000240: 9d53 b1bc d139 9d3d 1064 ebbb 8def 2c3d
00000250: b1dd 6f3d dac3 023d df5c b1bd b3a2 7a3d
00000260: a13c 9ebd 9f42 dd3c 372f 2cbc 922a a6bd
00000270: 391d 093d 360d 1ebd 97b4 a83d d0cb 84bd
00000280: a1b3 283d 93f7 713d 01b2 4dbd ca59 fe3c
00000290: 24fb 223c 385e 7bbb 9426 7e3d c6f3 fc3c
000002a0: 52e2 a93d 6dfa 843d 5f2d 133d 9f42 8f3d
000002b0: e6ac c33c a0af dabc 3f8f ef3b 7305 a3bc
000002c0: 79c6 fe3c cb4e f5bc 8e3b 0a3c 00f5 9bbd
000002d0: ad6c 64bd 04a2 17bd 8040 6bbd 5170 973d
000002e0: 575e 6ebc f12e 773d c2bd f9bc 6ced 1bbd
000002f0: e034 ebbc 766b b53c 0200 233d 9494 a6bd
00000300: de30 b13c c809 22bd 24ec 6b3d cdbc 3f3d
00000310: 022c 633d 7341 afbc 9109 9d3d 0926 a9bd
00000320: 2c49 a73d 0f9d a73c 6a43 8cbc f306 08bc
00000330: c8f5 1fbd b32c 84bc 6053 9f3d 4489 fabb
00000340: 7f42 903d a4e2 413d d1a3 cbbc 793b 7c3d
00000350: 2e9c 423b e74e a93d 4517 2abd 9a6e 1cbc
00000360: c3e8 1a3d ea32 15bb 5988 14bd b18f 01bc
00000370: 3e8a a63d 5568 8e3d d2cc 9dbd f387 5fba
00000380: 49de a13d 2470 923d 5fe5 763d 886d 873c
00000390: dfe0 3abd 7132 7c3d f0ef febc 9c70 7ebd
000003a0: 0d29 b7bc 0bca 57bc e163 4f3d d8f5 3abc
000003b0: afad 3b39 155e 903d bcfd c8bc 6be3 2f3d
000003c0: 439a 9c3d d776 6c3d 80f6 bbbc bbea 483d
000003d0: 91fb a13d f5aa 30bc b2af 06bd 9466 4c3d
000003e0: 1ecf 0bbc a2ed 493d d3fd b23b fe12 7cbb
000003f0: 89b5 aebc 958f 073c 38c8 53bd 3f2f 973c
0.009054749 0.06675619 0.07475565 -0.008702089 -0.06955328 0.059787303 0.011973609 -0.04446564
0.04353737 0.07543798 0.00028510301 -0.01944449 -0.072800346 -0.07286363 0.087435685 0.025746977
0.07408758 -0.0070351455 -0.07823194 -0.00025030292 0.067483634 -0.0073429383 -0.028451344 -0.028328553
0.013733766 0.06330669 -0.06473935 -0.030126523 -0.011431825 0.072069496 -0.08344169 -0.046814773
-0.048140794 0.061711073 0.08237266 -0.085912295 0.04316043 -0.07245561 0.034824125 0.01618165
-0.042367738 -0.025094803 -0.06814712 0.06996442 -0.05154312 0.029174695 0.07920699 -0.06746475
0.011543353 -0.073271826 0.024572933 0.04803008 0.01044146 0.015459817 -0.040872816 -0.016209228
-0.061211884 0.012612115 0.03936784 -0.009868514 0.027024446 -0.07598019 0.024993908 -0.05081253
-0.022591509 -0.046732094 -0.0794486 0.0041554663 0.020920232 -0.05621947 0.06653664 -0.08635598
-0.026405156 -0.01050138 -0.061280485 -0.006409623 -0.014891986 -0.025405392 0.075165756 -0.07050931
-0.07604573 -0.04598168 0.010867304 -0.013688196 -0.03984358 0.0829405 -0.029757444 0.0630757
0.071541354 -0.030514816 -0.06376027 -0.026721194 0.08674213 -0.031959407 0.020629091 -0.07095746
-0.036065057 0.07278998 0.07057957 0.009513078 -0.07035726 0.032055914 0.06372771 -0.035277996
-0.017033527 0.056235116 0.04616802 0.007113878 0.035070777 0.07691665 -0.040085748 0.049785007
-0.015214807 -0.03235894 0.029733038 0.046821818 0.07433977 -0.08620232 -0.022174997 0.017937336
-0.00017478815 0.04374682 -0.08214895 -0.013198748 -0.06252057 0.0065243277 0.014164132 0.07990464
-0.002401664 -0.029757628 -0.009621128 0.06532422 -0.060871415 -0.034125768 -0.0052692387 -0.05842575
0.045846716 -0.009825966 0.024957435 0.010767967 -0.019985367 0.05876101 0.03612934 -0.047575522
-0.021646315 0.07677043 -0.0071835592 0.04222064 0.05856103 0.03192506 -0.08660292 0.06119032
-0.07726408 0.027009306 -0.010509304 -0.081135884 0.033475135 -0.038586818 0.0823757 -0.06484187
0.041186932 0.059073996 -0.050218586 0.031048674 0.009947572 -0.003835572 0.06204851 0.030877959
0.0829512 0.064930774 0.03593194 0.06995129 0.023886155 -0.026695073 0.0073107774 -0.01990006
0.031100499 -0.029944798 0.0084370505 -0.076150894 -0.055767704 -0.037019745 -0.05743456 0.073944695
-0.01454886 0.0603475 -0.030485991 -0.03806822 -0.028711736 0.022145968 0.03979493 -0.08133808
0.021629747 -0.03956011 0.057598248 0.046810914 0.05546189 -0.021393513 0.0766784 -0.08259208
0.08168253 0.020460634 -0.01712199 -0.008302438 -0.039052755 -0.016134595 0.077795744 -0.007645758
0.07043933 0.047335282 -0.024858387 0.061580155 0.002969514 0.082670026 -0.041526098 -0.009547854
0.037819635 -0.0022765943 -0.036262844 -0.007907794 0.08131836 0.069534935 -0.07705082 -0.0008527033
0.07903726 0.071502954 0.06027734 0.01653172 -0.04562461 0.061571542 -0.03112027 -0.06211911
-0.022358442 -0.013170729 0.05063236 -0.011411153 0.00017898412 0.07049195 -0.024535052 0.042941492
0.076466106 0.057730522 -0.022944689 0.04905198 0.079093106 -0.010782947 -0.0328824 0.049902514
-0.008533267 0.04929889 0.005462387 -0.0038463469 -0.021326797 0.008273979 -0.051704615 0.018455146

bias f4 [128]
00000000: 3352 17bd 7f73 d83c 7997 543d 8275 c33c
00000010: f8fb c2bc 5da6 bd3b 2389 273d 5220 7a3d
00000020: 0c61 15bd 6819 e8bc 4dda 9a3d a55f 883c
00000030: 13ab 823c b668 4bbd aac4 e0bc 08bf 9a3d
00000040: 0c20 01bd 7f04 523d 7d4d bbbc a8b6 ad3c
00000050: 2e17 00bc b497 6abd 5b97 eebb 832b 9fbd
00000060: 8a13 39bb 82fe 423d 79c0 fe3c 6ea1 88bd
00000070: 16c8 953c 5c84 fd3c e2ea 113d 3eba 0bbd
00000080: 78b9 09bd 2aa3 6bbb b0a8 d2bc b8d8 25bd
00000090: 639c 603d 59b1 2dbd c7ff 4ebd 008b 07bd
000000a0: f977 32bd 58e4 f8b9 e4a7 61bd 789b 3dbb
000000b0: 7986 2c3d b499 783d 0962 93bb 6485 ffbc
000000c0: 0b6e f4bb 76fb 2a3d f785 06bd 574c f53c
000000d0: 88c2 a8bb de22 42bd 8ca3 b03b abf8 05bd
000000e0: 465d 2fbd 10e0 e1bc 2464 88bc bf68 39bc
000000f0: 7a9e 4c3d 742c a8bd 1cc3 5f3d 57a2 bf39
00000100: 6a93 16bd 8025 56bd e47a 89bd a02c 4ebd
00000110: 9319 7d3d d6e9 86bd 6a2b c93c f2ac 513d
00000120: 2b90 fabc 426e c1bc eca2 38bc cb26 263d
00000130: f70c 083b 26d2 863b 7fb1 4cbd 1539 e93c
00000140: 9a20 3a3d 706d f63b 3b98 3fbd ac0b 143d
00000150: 7e99 e6bc 377d d63b 70d1 4fbd d7d3 78bc
00000160: 7def 263d 22ea 28bd 793b 27bb da88 babc
00000170: d08c a3bc 1f11 4abd acc5 c43b 3aea a43a
00000180: 5f54 dbbc 982d 463d deb9 babc 2bef 58bd
00000190: 7a1f 4ebc 05d1 1ebd 42f3 f93c bd44 57bc
000001a0: cebb 2f3d fece 963c d52a dcbc 66c6 4f3d
000001b0: 195e 4bbd 291c 473d e5df 8fbd 4100 10bd
000001c0: 4eca f6bc 93e1 0abd fa53 803c 143e 573d
000001d0: 8828 563d af50 293c 9985 1d3d c225 4abd
000001e0: 2f45 303d 2568 50bd 04f2 9fbd 7423 813d
000001f0: fccd 72bc cdf9 e13a cc93 2b3d 5892 27bd
-0.036943626 0.02642226 0.051902268 0.023859743 -0.023801789 0.0057876543 0.04090227 0.06106598
-0.036469504 -0.028332427 0.07561169 0.01664717 0.015950715 -0.049660407 -0.027437527 0.075559676
-0.031524703 0.05127382 -0.022864098 0.021205261 -0.0078180265 -0.05727358 -0.0072812266 -0.07771971
-0.0028240406 0.047606 0.031097637 -0.06671415 0.018283885 0.030946903 0.035624392 -0.03411316
-0.033624142 -0.0035955408 -0.025715202 -0.040489882 0.054836642 -0.04240546 -0.050536897 -0.033091545
-0.043571446 -0.00047472375 -0.055091754 -0.0028931778 0.04212043 0.060693458 -0.0044977707 -0.031191535
-0.007459407 0.041743718 -0.032842603 0.029943628 -0.005150143 -0.047396533 0.00539059 -0.03270785
-0.04281356 -0.027572662 -0.016649313 -0.011316477 0.049955823 -0.08211604 0.05462943 0.00036551311
-0.03676168 -0.052281857 -0.06712893 -0.050335526 0.061791968 -0.065875694 0.024556834 0.051190324
-0.030586323 -0.023612145 -0.011269312 0.04056434 0.002075968 0.004114407 -0.04997396 0.028469602
0.045441248 0.00752037 -0.046776038 0.036143944 -0.028149363 0.0065456885 -0.050736845 -0.015187225
0.040755738 -0.04123891 -0.0025517626 -0.022770334 -0.019964606 -0.049332734 0.0060050096 0.0012582012
-0.02677363 0.048383325 -0.022793707 -0.052962463 -0.012580747 -0.038773555 0.030511502 -0.013138947
0.042903714 0.018409248 -0.026875893 0.050726317 -0.049650285 0.04861084 -0.07025126 -0.035156492
-0.030125763 -0.03390653 0.015665043 0.052549437 0.052284747 0.010334178 0.038457487 -0.049352415
0.04303473 -0.05088057 -0.07809833 0.0630559 -0.014819618 0.0017240584 0.041888997 -0.04091105

weight f4 [7, 132]
00000000: 8022 173b 4086 cbbc b91b 45bd 905d 293d
00000010: 7d8b 363d 638a e6ba af26 2bbc d1ff 113d
00000020: 2b32 943d ae7e 013c 0d2a 3a3d ddff 143d
00000030: 11dc 283d 4edf 4c3d 182c 87bd fbe2 7a3c
00000040: 070c 5b3d 0c9d 1dbd 40dc 243d 8609 3fbc
00000050: 759c 213d 0e29 39bd c8a5 913c c4e3 fe3c
00000060: 9afc 4b3d 9415 fcba 5fcc 0b3d 2336 2ebc
00000070: fee9 5b3d 43fb 7fbd 7281 283c cf72 b8ba
00000080: ab3b 303d 4b89 a23d d66f 113d f2ec 663d
00000090: ec4c 99bc bf82 f6bc ce12 7a3c a5bc 0cbc
000000a0: 5422 28bd 1365 963c 97ac 2fbd e8f7 45bd
000000b0: b466 1fbd b83e 4e3d 14cf 82bd 6f04 50bd
000000c0: c4d7 a93c 50a5 0c3d b279 99bd 8e01 37bd
000000d0: 270b f0bc 09df 413d 56dd babc c442 763d
000000e0: bcdd 8f3d f16b 3a3d 63bc 59bd 0b5c 8f3d
000000f0: 1db0 823d 1767 7d3d 9a7b 1bbd 7c86 533d
00000100: 471d 4fbb 4227 4bbd 29dd 2d3d 9096 f33b
00000110: 474e 52bd d9a2 bf3a 803e 91bd a87c 323c
00000120: bf43 0cbc cbc2 2ebd 125b 513d 0cc0 1b3d
00000130: 4bcf 59bc ccbf 163a 4195 833d fb61 833d
00000140: af51 2dbb 2f0b 123d 5a33 6c3c b736 8bbd
00000150: 4aa3 c53c ac16 f23c 3ff7 f93c f1e9 673d
00000160: 5b3f 84bd f919 6c3d ef99 87bc 2e6e 3e3d
00000170: 1291 693d 280e 483d 62e8 c33c d896 83bd
00000180: 18eb abbc 4e2a 9d3c cbcf bb3c 5772 22bd
00000190: 5214 52bd e1b9 58bc 9c12 8cbd abf8 033d
000001a0: aade 71bd a2b5 5c3d d69a 7f3d 93c9 6a3c
000001b0: d0a8 113c 5f2d 40bd 112c 69bd db7e 11bc
000001c0: 9aa8 9dbc 9945 7c3d 1e7a 1b3d 275b 063c
000001d0: 9702 64bd 8a6a 3cbd 71f7 933b 627d ae3c
000001e0: 09dd 35bd f4ae 453d cdf4 eabc fcea 42bd
000001f0: d64a 1d3c ec2d ab3c ba85 39bd 1ae2 3cbc
00000200: 6694 be3c 9413 593d 4147 cdbb 649f 143c
00000210: 688c 183c a8b1 733c 4c28 a63d 5b1d 90bd
00000220: d034 86bd 55ce 2abd ebb2 1d3d d607 65bd
00000230: a12b 22bd ab4d 4abd 72dc 333d b7dd 713b
00000240: 5be9 7dbd 279f 6fbd 03d3 43bc 78c1 0a3d
00000250: 268c 5e3d f783 87bd fb87 813c c145 86bb
00000260: 64ec 43bd 8baf 8c3d 2ebe 86ba 62f9 2fbd
00000270: ef7a 953b 95e9 7c3d db2e 523d 8f86 88bd
00000280: e126 54bb 43ab 01bd 6932 dcb8 76cd 973d
00000290: 778a 03bd 37f6 a03d 708b 133d e9ba 4c3d
000002a0: 65bc 363d 4986 5abd 2487 253d 236c 98bc
000002b0: 76c1 ed3b c449 853c ba17 7fbd f359 3b3d
000002c0: a9a0 75bd 1aff 47bd d8d3 7dbd 537b 573d
000002d0: 15a4 a03c e2cb 86bd 2933 363d c391 213d
000002e0: 6eba 443c a9c8 83bd 11ee 833c b5c1 8aba
000002f0: f753 54bd f616 ee3c 9c95 0dbd 4b40 063d
00000300: d580 8a3d 781d 4d3d 6b20 a0bb 7c33 2dbc
00000310: c9bb 93bd 0604 823d 9691 5dbd 8f34 27bd
00000320: 40ac 78bd 3801 a03c 3f2d 0bb9 3a8d 2b3d
00000330: 7c93 f83c b8c7 97bd 05ca 72bd a398 223c
00000340: 5bea 3cbd bed3 80bc 0540 fa3c a9d8 a93c
00000350: 954d 8e3d 70b6 3c3d f265 05bd b5be 89bd
00000360: ebd2 793c 6bff ac3d 6f64 52bd 6268 d93c
00000370: 7b06 9b3c a550 8d3d d4a2 873c 9179 8ebd
00000380: 58e1 353d 0a30 423d 72a9 8c3d 9a16 8f3c
00000390: 6bac 4f3c 1866 843d 3168 73bd 2419 2dbd
000003a0: 7d62 52bc 78ee 6cbd 8e0f 89bc 517f 893d
000003b0: 2531 03bd 0c99 c23c 5fdc 09ba 530d 3dbd
000003c0: 9ca2 4cbc cf55 223d 02bb 95bd f8d7 89bc
000003d0: 6eba 21bd eb31 09bd fd22 8bbc 59eb 033d
000003e0: 8b75 b5bc a733 9abd e2cd 8fbd 68eb f93c
000003f0: 77b4 473a 03fa 55bc dd72 52bd 621e 823c
0.0023061335 -0.024844289 -0.04812214 0.041348994 0.04456662 -0.001758885 -0.010446235 0.035644356
0.07236131 0.007903738 0.04545026 0.036376823 0.041225497 0.050017647 -0.06600207 0.015312905
0.053478267 -0.03847985 0.04024911 -0.011659985 0.03945585 -0.04520517 0.017779246 0.031114466
0.049801446 -0.0019232505 0.03413045 -0.010633024 0.05368995 -0.06249548 0.010284768 -0.0014072302
0.043025654 0.07936343 0.035507046 0.056378312 -0.018713437 -0.030091641 0.015263272 -0.008589898
-0.041048363 0.018358743 -0.042889204 -0.048332125 -0.038916305 0.050352782 -0.06387153 -0.05078548
0.020732768 0.03433734 -0.07493915 -0.044679217 -0.029302193 0.047331844 -0.02281062 0.060122266
0.07024714 0.045513097 -0.053158175 0.06999978 0.06381247 0.061865892 -0.037959673 0.051641926
-0.0031603144 -0.049597986 0.042447243 0.00743372 -0.051344182 0.0014620676 -0.07091999 0.010893978
-0.008561074 -0.042666238 0.051112242 0.038024947 -0.013294051 0.0005750626 0.06424952 0.06415173
-0.0026446392 0.035655197 0.01441654 -0.067975454 0.024125714 0.029551826 0.030513404 0.05661959
-0.064573966 0.057641957 -0.016552893 0.046491794 0.057023115 0.048841625 0.02391452 -0.064252555
-0.020986125 0.019185212 0.022926232 -0.039659824 -0.05128891 -0.013227911 -0.06839487 0.03221957
-0.05905024 0.053884156 0.062403522 0.014330286 0.008890346 -0.04691827 -0.05692679 -0.008880342
-0.019245435 0.06158981 0.037958257 0.008200443 -0.055666532 -0.04600004 0.0045155813 0.021300022
-0.04440025 0.04826255 -0.028681183 -0.04758738 0.009600362 0.02089592 -0.045293547 -0.011528516
0.023264121 0.052997187 -0.0062645976 0.009071205 0.009310819 0.0148738995 0.08113155 -0.07036849
-0.06553042 -0.04170068 0.038500708 -0.055915676 -0.03959239 -0.049390476 0.043911405 0.0036905834
-0.061990123 -0.05850139 -0.011952165 0.033875912 0.054332875 -0.06616967 0.01581191 -0.004097671
-0.04783286 0.0686942 -0.0010280067 -0.04296244 0.004561774 0.0617462 0.051314216 -0.0666629
-0.0032371806 -0.03165747 -0.00010499807 0.074122354 -0.032114472 0.07859462 0.03602165 0.04998294
0.04461326 -0.05335072 0.040412083 -0.018606251 0.0072557284 0.016270526 -0.062278487 0.04574008
-0.05996767 -0.04882727 -0.061969608 0.052607846 0.01960949 -0.06581856 0.044482384 0.03944565
0.012007339 -0.06434757 0.01610473 -0.0010586294 -0.051837888 0.029063683 -0.034566507 0.03277616
0.06762854 0.05007693 -0.004886677 -0.010571357 -0.072135516 0.06348424 -0.05409392 -0.04082161
-0.060711145 0.019531831 -0.00013272928 0.04188273 0.030343764 -0.0741114 -0.059274692 0.009924087
-0.046121936 -0.015725967 0.030548105 0.020733194 0.06948391 0.046072423 -0.032567926 -0.067258276
0.015248041 0.084471546 -0.051365312 0.026539031 0.018923989 0.06900147 0.016557135 -0.06956781
0.044404358 0.047409095 0.06868257 0.017466832 0.012675385 0.06464785 -0.059425537 -0.042260304
-0.012840864 -0.05784461 -0.01673105 0.06713737 -0.03202929 0.023754619 -0.0005258973 -0.046155285
-0.012489941 0.039632615 -0.073110595 -0.016826615 -0.039484434 -0.03349487 -0.016984457 0.032206867
-0.022150775 -0.07529383 -0.07021691 0.030507758 0.0007618139 -0.013060096 -0.051379073 0.015883628

bias f4 [7]
00000000: a4df 18bd d281 c43d e07d feba 4f00 fc3d
00000010: 36af 9e3c 5e5b 6fbd 978a cbbc
-0.037322655 0.09595074 -0.0019416176 0.12304746 0.019370656 -0.058436744 -0.024846358
